graphs/a2d.pt (torch, 5907 bytes, 4 tensors)

weight f4 [128, 4]
0.04213892 -0.14736369 -0.7881684 -0.10457533 0.39856127 0.5339322 0.536918 0.8958857
-0.049381565 0.10776726 -0.15598716 0.051052485 -0.20292734 0.017749563 0.41047516 0.010410915
0.024881992 -0.04374116 0.24063092 -0.13529776 -0.03797907 -0.1667165 -0.36529467 -0.17869695
-0.041145604 0.015589789 0.020413715 0.07149418 0.15007032 -0.19352366 -1.0836903 -1.1225802
-0.40762565 0.34405088 1.1811242 1.0005223 0.032234572 0.24960317 1.2201267 0.8768934
0.025655264 -0.06564565 -0.047350526 -0.37265033 0.1243618 -0.32367882 -0.9121568 -0.5584066
-0.4031265 -0.19623356 -0.44363633 -0.01490627 0.02412325 -0.00847576 0.15027665 -0.016959287
-0.13229053 0.56746644 1.3777666 0.9370549 -0.123665854 0.14750743 0.14410233 0.0052006734
0.24938197 -0.32775614 -0.8945123 -0.90151745 0.37944564 -0.3130516 -1.250738 -1.1582445
0.26511434 -0.35756177 -0.7687392 -0.78670025 -0.1703528 0.21496445 0.05068255 -0.2206951
0.070686296 -0.19322011 -0.076691136 -0.07605618 0.14064269 0.38570988 0.99561363 0.8108648
0.016886419 -0.05141458 0.17803878 0.0144416755 0.051586036 0.27031356 1.0592523 0.88075805
-0.08483216 -0.06278937 -0.36753216 -0.13315974 -0.0105913915 0.030202415 0.17101128 0.27441198
0.0013640537 -0.12432149 -0.59211963 -0.1911529 -0.61616445 -0.2322862 -0.06906186 0.034631036
0.08619852 -0.25560302 -0.7609895 -0.44116548 -0.12150157 -0.29178277 -0.10585045 -0.06553201
0.1088967 -0.13032022 -0.10520662 0.030496499 0.029937003 0.02402837 0.15907851 0.096733235
0.0038458488 0.024711661 -0.1393885 0.24432957 -0.32845697 -0.1517155 1.0605028 0.53455776
-0.7073838 -0.094939604 0.4035408 0.03469879 0.06818284 -0.1407886 -0.25825092 0.24402313
-0.39729908 -0.1395389 0.8589442 0.59010446 0.14517713 -0.21475863 -1.1498535 -0.44111344
-0.10600926 0.089921646 -0.034277115 0.19668268 0.0905624 0.4956602 1.3978515 0.88691854
0.25022906 0.3415692 1.1814557 1.1217514 -0.5961028 -0.17246114 0.27439985 0.32934406
-0.016726414 -0.08106106 -0.24833265 -0.046595186 -0.59121084 -0.2191796 0.11601705 0.076693974
-0.019920554 0.05063716 -0.22409809 0.1355528 -0.011499919 -0.087031655 -0.07417337 -0.15328605
0.04960463 -0.16462271 -0.038093746 -0.020389028 -0.12814999 -0.013097093 -0.050353047 0.05587617
-0.27226552 -0.02897675 -0.1643003 0.15768023 0.28567246 -0.2661788 -1.2087646 -0.9018332
0.034383908 0.03991234 -0.20205931 -0.33143786 0.19503903 -0.1460646 -0.88624114 -0.36624727
0.13456747 -0.22574432 -1.016572 -0.41998667 0.08692077 -0.1461008 -0.2614075 -0.049817745
-0.8019532 -0.07480016 0.64787555 0.78413737 -0.060178973 0.015428035 0.1863983 -0.06552067
0.106195174 -0.1322759 -0.22781496 -0.04846371 0.1716538 -0.16426873 -0.18038534 -0.079485394
0.026107552 -0.14152169 -0.1439159 -0.26817787 -0.122723736 0.21021126 0.17610642 0.045972176
0.29618195 -0.29502243 -1.2781905 -0.99933696 0.04561288 0.026333278 -0.1033758 0.13893841
-3.620854e-05 -0.18326381 0.37813494 0.3304912 -0.3481793 -0.06629659 1.0214504 0.65417784
00000000: dc99 2c3d 82e6 16be 67c5 49bf 972b d6bd
00000010: 3910 cc3e c8af 083f 7573 093f c458 653f
00000020: 5344 4abd 15b5 dc3d 19bb 1fbe 691c 513d
00000030: 2fcc 4fbe 8867 913c cd29 d23e 8b92 2a3c
00000040: 52d5 cb3c ee29 33bd f467 763e 7f8b 0abe
00000050: f18f 1bbd bbb7 2abe e707 bbbe 55fc 36be
00000060: 4b88 28bd 506c 7f3c aa3a a73c 8a6b 923d
00000070: 09ac 193e 112b 46be 5db6 8abf b5b0 8fbf
00000080: 4fb4 d0be 7027 b03e 142f 973f 1d11 803f
00000090: 6608 043d f997 7f3e 1d2d 9c3f 167c 603f
000000a0: fd2a d23c 3a71 86bd a0f2 41bd 06cc bebe
000000b0: 66b1 fe3d 3bb9 a5be 1c83 69bf bcf3 0ebf
000000c0: 9966 cebe 73f1 48be 4d24 e3be 6e39 74bc
000000d0: 1f9e c53c eadd 0abc 1fe2 193e 34ee 8abc
000000e0: 2b77 07be 7b45 113f a85a b03f d4e2 6f3f
000000f0: 8644 fdbd 300c 173e 908f 133e 696a aa3b
00000100: fd5d 7f3e a7cf a7be c2fe 64bf d9c9 66bf
00000110: b346 c23e 4d48 a0be 2f18 a0bf 5b41 94bf
00000120: 11bd 873e 5612 b7be 18cc 44bf 3065 49bf
00000130: f770 2ebe a41f 5c3e 8198 4f3d e5fd 61be
00000140: fac3 903d 7edb 45be 3e10 9dbd 58c3 9bbd
00000150: a304 103e c47b c53e 89e0 7e3f d694 4f3f
00000160: 6355 8a3c 1898 52bd cc4f 363e c79c 6c3c
00000170: e14b 533d 8a66 8a3e 9495 873f 5c79 613f
00000180: 7cbc adbd b797 80bd 2d2d bcbe 075b 08be
00000190: 8487 2dbc 0e6b f73c 951d 2f3e ba7f 8c3e
000001a0: 0cca b23a 449c febd 2795 17bf 96bd 43be
000001b0: f4bc 1dbf 6fdc 6dbe 4e70 8dbd 46d9 0d3d
000001c0: da88 b03d 66de 82be 35d0 42bf 71e0 e1be
000001d0: d1d5 f8bd 8d64 95be 1fc8 d8bd a535 86bd
000001e0: 3c05 df3d aa72 05be 9276 d7bd cbd3 f93c
000001f0: 723e f53c 25d7 c43c 7ae5 223e 131c c63d
00000200: a30a 7c3b 1c70 ca3c dcbb 0ebe 8831 7a3e
00000210: 832b a8be 4f5b 1bbe 8ebe 873f c7d8 083f
00000220: 1b17 35bf b26f c2bd e69c ce3e 5220 0e3d
00000230: 72a3 8b3d e32a 10be 7739 84be 33e1 793e
00000240: c96a cbbe 49e3 0ebe c4e3 5b3f 1611 173f
00000250: 50a9 143e b0e9 5bbe 662e 93bf 9fd9 e1be
00000260: 621b d9bd d728 b83d 2966 0cbd 2f67 493e
00000270: c878 b93d 2cc7 fd3e ccec b23f 180d 633f
00000280: 061e 803e 28e2 ae3e f139 973f 8d95 8f3f
00000290: 319a 18bf a799 30be 237e 8c3e c99f a83e
000002a0: d505 89bc 5703 a6bd ea4a 7ebe 98da 3ebd
000002b0: 9859 17bf 9e70 60be 599a ed3d bb11 9d3d
000002c0: 6e30 a3bc e968 4f3d f879 65be 5ace 0a3e
000002d0: 286a 3cbc a73d b2bd 35e8 97bd 05f7 1cbe
000002e0: 392e 4b3d db92 28be 3008 1cbd e406 a7bc
000002f0: c039 03be 3195 56bc ff3e 4ebd 69de 643d
00000300: 6366 8bbe a660 edbc 563e 28be ed76 213e
00000310: a943 923e 9648 88be ccb8 9abf 8ade 66bf
00000320: 24d6 0c3d 1f7b 233d a3e8 4ebe 39b2 a9be
00000330: 50b8 473e f591 15be b3e0 62bf c384 bbbe
00000340: 0ecc 093e 8529 67be 081f 82bf 7e08 d7be
00000350: 8403 b23d 739b 15be 34d7 85be b10d 4cbd
00000360: ce4c 4dbf d430 99bd 2cdb 253f 3abd 483f
00000370: 3a7e 76bd dec5 7c3c 32df 3e3e b32f 86bd
00000380: db7c d93d 5573 07be 5348 69be e281 46bd
00000390: 04c6 2f3e 1036 28be efb6 38be 3dc9 a2bd
000003a0: 81df d53c 10eb 10be b15e 13be 9c4e 89be
000003b0: 9556 fbbd 9f41 573e 3e55 343e 524d 3c3d
000003c0: 29a5 973e 2e0d 97be bf9b a3bf 8cd4 7fbf
000003d0: 92d4 3a3d e3b8 d73c b1b6 d3bd df45 0e3e
000003e0: a0de 17b8 82a9 3bbe e79a c13e 2436 a93e
000003f0: 8f44 b2be 82c6 87bd e3be 823f 3378 273f

bias f4 [128]
-0.20564683 0.18048595 -0.40625983 -0.361023 -0.12374817 -0.7283864 -0.29431504 0.04033333
0.35479853 0.2290726 -0.53883475 0.093897805 -0.5137402 -0.37949196 0.25849822 -0.3392712
0.0034288152 0.087445684 -0.059596237 -0.33587825 -0.3882364 0.20746061 -0.15620482 0.20090961
-0.5986789 -0.509766 -0.23928079 -0.3944379 0.10658032 -0.5006399 -0.43929178 -0.40830976
-0.5964521 0.084649436 -0.30167496 -0.43186048 -0.058180895 0.15314086 -0.2736355 0.216714
0.2698757 -0.19895962 -0.4888541 -0.38052735 -0.17281206 -0.40547982 -0.39467087 -0.36499304
-0.40720838 -0.0047426564 -0.17919454 -0.12870783 0.039114486 -0.5751048 0.105336785 -0.3527747
-0.29945737 -0.47991002 -0.5276967 -0.56357384 -0.012902375 -0.3220976 -0.4416226 0.21986932
0.20129319 -0.1912796 -0.23066516 0.14322329 -0.67903006 -0.456296 -0.318084 -0.3635177
0.26591408 -0.01656329 -0.12325128 0.15106979 -0.44914776 -0.446864 0.03374122 -0.2346112
-0.32932717 -0.37216243 -0.18604606 0.3276166 0.29568955 0.2550131 -0.3667346 -0.34503156
-0.27568185 -0.6326157 -0.45863307 0.2808583 0.18261257 -0.48181587 0.06517463 0.28580633
-0.47830945 0.10196132 0.083342575 0.18421347 -0.48838377 0.13822106 -0.28630525 0.050324664
-0.19863269 -0.4736249 -0.39631847 0.30345762 0.32552502 -0.065733194 -0.63608485 -0.2792499
-0.4841879 -0.47116056 0.2388173 -0.28206047 -0.4209881 -0.35513908 -0.28728837 -0.0120320795
-0.47787607 0.21144356 0.29450285 -0.48119095 -0.14047131 0.24746266 0.038282067 0.26248452
00000000: 1595 52be 4fd1 383e 4a01 d0be 02d8 b8be
00000010: ae6f fdbd 8877 3abf 76b0 96be 9034 253d
00000020: 27a8 b53e 0292 6a3e 13f1 09bf 7e4d c03d
00000030: 7a84 03bf c54c c2be e159 843e f4b4 adbe
00000040: f9b5 603b b916 b33d 2f1b 74bd 3cf8 abbe
00000050: ecc6 c6be 8e70 543e 28f4 1fbe 40bb 4d3e
00000060: 0543 19bf 0680 02bf 0606 75be c4f3 c9be
00000070: c846 da3d f029 00bf daea e0be fa0d d1be
00000080: 16b1 18bf af5c ad3d 2475 9abe d11c ddbe
00000090: 174f 6ebd f5d0 1c3e f419 8cbe 46ea 5d3e
000000a0: 262d 8a3e 12bc 4bbe 164b fabe 7bd4 c2be
000000b0: a5f5 30be 0d9b cfbe 4d12 cabe 5ee0 babe
000000c0: 9e7d d0be 4968 9bbb c67e 37be fccb 03be
000000d0: 8336 203d 113a 13bf d0ba d73d e39e b4be
000000e0: 7a52 99be c4b6 f5be 2217 07bf 6046 10bf
000000f0: 7c64 53bc fae9 a4be 5c1c e2be 6c25 613e
00000100: cd1f 4e3e cdde 43be 7d33 6cbe 20a9 123e
00000110: ead4 2dbf a19f e9be e8db a2be fe1e babe
00000120: e425 883e bdaf 87bc 2b6b fcbd 0ab2 1a3e
00000130: b2f6 e5be 5ccb e4be 3c34 0a3d eb3d 70be
00000140: 929d a8be 138c bebe dc82 3ebe 5dbd a73e
00000150: 9f64 973e 1491 823e a3c4 bbbe faa7 b0be
00000160: 2c26 8dbe 1af3 21bf f4d1 eabe a9cc 8f3e
00000170: cafe 3a3e 92b0 f6be 477a 853d 3555 923e
00000180: fae4 f4be 19d1 d03d 83af aa3d 75a2 3c3e
00000190: 700d fabe d289 0d3e 9a96 92be 3c21 4e3d
000001a0: 5e66 4bbe f77e f2be 41ea cabe cc5e 9b3e
000001b0: 37ab a63e 209f 86bd 75d6 22bf d8f9 8ebe
000001c0: 7ae7 f7be f53b f1be 868c 743e 3b6a 90be
000001d0: c18b d7be cad4 b5be 7617 93be 3322 45bc
000001e0: 2cac f4be a984 583e 14c9 963e a95e f6be
000001f0: b6d7 0fbe da66 7d3e a8cd 1c3d 5f64 863e

weight f4 [2, 128]
-0.19130117 -0.40335518 -0.086118 0.023316704 -0.24027446 0.25292537 -0.015901903 0.20923412
-0.6427789 -0.5551264 -0.04109408 0.09863095 -0.14728709 -0.0547728 -0.42362267 -0.21211514
0.42102098 0.39923757 0.0803826 0.034583133 0.073834516 -0.15032503 0.16453278 -0.39379862
-0.30896428 0.20325203 -0.13308442 -0.2623452 -0.069003046 -0.2589072 -0.10627115 -0.11046006
-0.011491812 -0.1538447 -0.29574618 0.23160544 0.048206434 0.029627986 0.07262842 -0.560236
-0.46621782 -0.3549212 -0.26711243 -0.37274086 -0.060428854 -0.10226048 -0.13231155 -0.008840176
-0.054789003 0.30441332 -0.16471384 0.13784063 0.09791501 0.20634006 -0.6410177 0.064577706
0.16811444 -0.16782424 -0.024059169 -0.012756485 0.6235131 -0.13671024 -0.32985976 -0.22677419
-0.58534837 0.08274489 0.1321214 -0.49284267 0.1630571 -0.27648696 0.109997675 -0.0072220434
-0.39629656 -0.06799798 -0.26099154 0.2688909 -0.02577561 0.19194204 0.033082813 0.060735416
0.16019958 -0.12416173 0.055216767 -0.36963296 -0.90686566 -0.6136589 -0.039667144 -0.46258587
-0.106696166 -0.10855368 -0.19135267 -0.25569752 0.20063587 0.0070064818 0.13104878 -0.80852216
-0.00013822014 -0.6427825 -0.35277134 -0.667554 -0.15232058 0.3478085 -0.11768777 0.5707864
-0.54372436 0.025507044 0.07459317 -0.78116226 -0.45649442 0.023737144 -0.07844262 -0.13302943
0.12913297 -0.14274073 -0.6629048 -0.0035841605 -0.20820326 0.13673775 -0.23454557 0.4100908
0.05207783 -0.71184766 -0.30148995 0.11863834 -0.1897867 -0.52072805 0.23124939 -0.41754788
-0.13923383 0.484556 -0.14252111 -0.050765447 0.09285412 0.049945958 0.030204384 -0.21692348
0.40828383 0.45774412 -0.1601004 -0.06387445 0.15320784 0.31666034 0.6474796 -0.15397647
-0.13204996 -0.60739124 -0.108650506 0.30762392 0.018466664 0.24497607 0.1986377 0.6354256
0.13241692 -0.17245874 -0.06907049 0.30522645 -0.10517453 0.20105678 0.16323365 -0.084448285
-0.15909125 0.16252321 0.25485125 -0.14788735 0.24720943 -0.14146452 -0.2694706 0.5809652
0.16669843 0.19247575 0.18224661 0.23400283 -0.03836284 0.13975337 0.17751047 0.042935584
0.053562224 -0.5279368 -0.1555104 0.12542342 -0.009867875 0.10871248 0.74488693 0.052862745
0.041131932 0.022493035 0.13168037 0.06200288 -0.22275825 0.059503067 0.00013178826 0.14483659
0.64801955 0.14525442 0.14705656 0.70523024 0.14579159 0.24347922 0.08962646 0.13925901
0.28882417 -0.26012224 0.16130799 0.021881629 0.2636248 -0.15929444 -0.1962464 0.09114807
0.19288747 0.32260177 0.15881899 0.25392675 0.73651904 0.46295008 0.0023869884 0.38557273
-0.14434399 0.23552927 0.119872324 0.24478008 0.048290715 0.19461578 -0.08407196 0.62847155
0.001617737 0.84291583 0.05029481 0.43229216 0.10240717 -0.34772155 0.09522805 -0.4336045
0.3504471 0.3232969 0.16586128 0.9325826 0.30612794 -0.06677537 0.22668815 -0.24206404
-0.0901458 0.22488138 0.53249526 -0.30099747 -0.18335211 -0.0441161 0.09352306 -0.550266
0.09149212 0.82145625 0.55340916 0.212329 0.187797 0.3384147 -0.12411211 0.26136678
00000000: 74e4 43be 9284 cebe a25e b0bd ac02 bf3c
00000010: 820a 76be 6f7f 813e b544 82bc 7841 563e
00000020: 288d 24bf c41c 0ebf 4452 28bd 06ff c93d
00000030: 6dd2 16be 7259 60bd 12e5 d8be b634 59be
00000040: 1090 d73e de68 cc3e a29f a43d 0ba7 0d3d
00000050: 8d36 973d ceee 19be 487b 283e f99f c9be
00000060: 9130 9ebe 4d21 503e 4847 08be 1c52 86be
00000070: 7851 8dbd 7c8f 84be b0a4 d9bd e238 e2bd
00000080: 2748 3cbc 7789 1dbe 0b6c 97be fa29 6d3e
00000090: 1c74 453d 64b6 f23c 36be 943d a06b 0fbf
000000a0: 1ab4 eebe 3bb8 b5be f6c2 88be e4d7 bebe
000000b0: 3f84 77bd f16d d1bd ae7c 07be 63d6 10bc
000000c0: 6f6a 60bd 10dc 9b3e bfaa 28be 1826 0d3e
000000d0: aa87 c83d cf4a 533e bc19 24bf 5141 843d
000000e0: 3126 2c3e 1eda 2bbe bc17 c5bc 9300 51bc
000000f0: 8e9e 1f3f c5fd 0bbe 61e3 a8be 7e37 68be
00000100: 64d9 15bf 2776 a93d d54a 073e e055 fcbe
00000110: 71f8 263e b38f 8dbe 7646 e13d e4a6 ecbb
00000120: 62e7 cabe 8642 8bbd afa0 85be 11ac 893e
00000130: 5f27 d3bc 748c 443e d881 073d b3c5 783d
00000140: 5c0b 243e 8148 febd fa2a 623d 8840 bdbe
00000150: 5928 68bf c018 1dbf 047a 22bd 0ed8 ecbe
00000160: 8583 dabd 6451 debd f4f1 43be c9ea 82be
00000170: 7d73 4d3e a196 e53b a731 063e 4ffb 4ebf
00000180: 30ef 10b9 658d 24bf 729e b4be d2e4 2abf
00000190: edf9 1bbe f513 b23e 4906 f1bd 0f1f 123f
000001a0: 8531 0bbf 26f4 d03c 4ec4 983d 40fa 47bf
000001b0: a3b9 e9be 6674 c23c 86a6 a0bd de38 08be
000001c0: 6f3b 043e a02a 12be 21b4 29bf 3ce4 6abb
000001d0: 3c33 55be fb04 0c3e b72c 70be 6cf7 d13e
000001e0: 904f 553d a63b 36bf e45c 9abe a8f8 f23d
000001f0: 7257 42be 6f4e 05bf a4cc 6c3e d6c8 d5be
00000200: 5093 0ebe b917 f83e 0ef1 11be 6eef 4fbd
00000210: 4d2a be3d 2294 4c3d 2f6f f73c 3021 5ebe
00000220: 940a d13e 705d ea3e 5cf1 23be 9cd0 82bd
00000230: 84e2 1c3e 4e21 a23e 39c1 253f 02ac 1dbe
00000240: 1b38 07be fe7d 1bbf 2884 debd e280 9d3e
00000250: 6747 973c 02db 7a3e ae67 4b3e 41ab 223f
00000260: 4d98 073e 0699 30be d474 8dbd a446 9c3e
00000270: be65 d7bd d4e1 4d3e b926 273e 39f3 acbd
00000280: d1e8 22be 7c6c 263e dd7b 823e c86f 17be
00000290: 7824 7d3e 13dc 10be 0df8 89be 23ba 143f
000002a0: feb2 2a3e 5d18 453e db9e 3a3e 709e 6f3e
000002b0: 5a22 1dbd 821b 0f3e 4ec5 353e 39dd 2f3d
000002c0: 1064 5b3d de26 07bf 1e3e 1fbe ff6e 003e
000002d0: deac 21bc a6a4 de3d e9b0 3e3f 9b86 583d
000002e0: f579 283d 5043 b83c 38d7 063e bbf6 7d3d
000002f0: bd1a 64be 7db9 733d a430 0a39 0b50 143e
00000300: 9ce4 253f 93bd 143e ff95 163e f889 343f
00000310: 644a 153e 9e52 793e 148e b73d ea99 0e3e
00000320: c3e0 933e be2e 85be ec2d 253e 1a41 b33c
00000330: d4f9 863e 151e 23be d1f4 48be d7ab ba3d
00000340: 4b84 453e 0f2c a53e 72a1 223e b002 823e
00000350: 838c 3c3f cb07 ed3e 056f 1c3b ca69 c53e
00000360: e9ce 13be 962e 713e 9f7f f53d a1a7 7a3e
00000370: 7ccc 453d 5c49 473e eb2d acbd 83e3 203f
00000380: 3f0a d43a 55c9 573f ee01 4e3d 6655 dd3e
00000390: daba d13d 8f08 b2be ed06 c33d 6901 debe
000003a0: cd6d b33e 2c87 a53e 8ad7 293e bcbd 6e3f
000003b0: cdbc 9c3e 86c1 88bd f020 683e a3df 77be
000003c0: 5c9e b8bd 4e47 663e 9c51 083f 571c 9abe
000003d0: a8c0 3bbe 15b3 34bd 0589 bf3d 3cde 0cbf
000003e0: 3860 bb3d f54a 523f 39ac 0d3f c66c 593e
000003f0: db4d 403e b144 ad3e 7d2e febd ded1 853e

bias f4 [2]
-0.033453137 0.0022216798
00000000: 2806 09bd 9a99 113b
